…
<p>How would I go about doing this?  I assume that the matrix from TfidfTransformer.fit_transform() is a matrix of tfidf scores for each word in an array of documents like:</p>

<pre><code>  [[.1234, .234, .345], # document 1
  [.098, .987, .876],   # document 2
 [.555, .666, .777]]    # document 3
</code></pre>

<p>If that's the case, I can just replace every word with it's score and feed that matrix into the classifier. But I can't really tell because there's a lot of stuff going on under the hood that I can't see.</p>

<p>Edit:  I was able to print the first entry of the numpy array, which is itself a numpy array, so I printed the first entry of that and got: </p>

<pre><code> (0, 3911)     0.22756829025
 (0, 3826)     0.161385996776
 (0, 3815)     0.100930582918
 (0, 3627)     0.158255401295
 (0, 3621)     0.194939740341
 (0, 3620)     0.100757250634
 (0, 3527)     0.0734744409855
 (0, 3246)     0.109635312627
</code></pre>

<p>The column on the left must be tfidf scores but I'm not sure what the right is.  I assume wordids and the document id?</p>
",2015-11-28 08:14:59,2015-11-28 08:14:59,Fit Gensim LDA into SciKit Naive Bayes classifier,<python><scikit-learn><gensim>,,,CC BY-SA 3.0,False,False,True,False,True
7192,34021351,2015-12-01 13:15:05,,"<p>I'm having a problem when trying to import gensim in python. When typing:</p>
…
model.add(LSTM(activation=""sigmoid"", units=embeddings_dim, recurrent_activation=""hard_sigmoid"", return_sequences=True))
model.add(Dropout(0.25))
model.add(Dense(1))
model.add(Activation('sigmoid'))

model.compile(loss='binary_crossentropy', optimizer='adam', class_mode='binary')
else: model.compile(Adam(lr=0.04),'categorical_crossentropy',metrics=['accuracy'])

model.summary()


model.fit(train_sequences, train_labels , epochs=30, batch_size=32)
</code></pre>

<p>My model is this:</p>

<pre><code>Layer (type)                 Output Shape              Param #   
=================================================================
embedding_1 (Embedding)      (None, 50, 300)           9000000   
_________________________________________________________________
dropout_1 (Dropout)          (None, 50, 300)           0         
_________________________________________________________________
lstm_1 (LSTM)                (None, 50, 300)           721200    
_________________________________________________________________
dropout_2 (Dropout)          (None, 50, 300)           0         
_________________________________________________________________
lstm_2 (LSTM)                (None, 50, 300)           721200    
_________________________________________________________________
dropout_3 (Dropout)          (None, 50, 300)           0         
_________________________________________________________________
dense_1 (Dense)              (None, 50, 1)             301       
_________________________________________________________________
activation_1 (Activation)    (None, 50, 1)             0         
=================================================================
Total params: 10,442,701
Trainable params: 10,442,701
Non-trainable params: 0
</code></pre>

<p>My error is:
Error when checking target: expected activation_1 to have 3 dimensions, but got array with shape (750, 1)</p>

<p>I try to reshape all my array, but i not found the solution.
Can someone help me??? thank you :D
Sorry for my bad english.</p>
…
predicted= clf.predict(test_array)
intersect=0
union=0
accuracy=[]
for i in range(0,3250): #i have 3250 test tweets.
    for j in range(0,11): #11 emotions
        if predicted[i,j]&amp;test_gold_labels[i,j]==1:
            intersect+=1
        if predicted[i,j]|test_gold_labels[i,j]==1:
            union+=1
    
    accuracy.append(intersect/union) if union !=0 else accuracy.append(0.0)
    intersect=0
    union=0
print(np.mean(accuracy))
</code></pre>
<p>The Result:</p>
<pre><code>0.4674498168498169
</code></pre>
<p>And i printed predicted variable (for tweet 0 to 10) to see how it looks like:</p>
<pre><code>  (0, 0)    1
  (0, 2)    1
  (2, 0)    1
  (2, 2)    1
  (3, 4)    1
  (3, 6)    1
  (4, 0)    1
  (4, 2)    1
  (5, 0)    1
  (5, 2)    1
  (6, 0)    1
  (6, 2)    1
  (7, 0)    1
  (7, 2)    1
  (8, 4)    1
  (8, 6)    1
  (9, 3)    1
  (9, 8)    1
</code></pre>
<p>as you can see, it only show 1's. for example (6,2) means in tweet number 6, emotion number 2 is 1. (9,8) means in tweet number 9, emotion number 8 is 1. the other emotions considered as 0. but you can imagine it like this to better understand what i've done in Accuracy method:</p>
<pre><code>gold emotion for tweet 0:      [1 1 0 0 0 0 1 0 0 0 1]
predicted emotion for tweet 0: [1 0 1 0 0 0 0 0 0 0 0]
…
13  somewhere   1
</code></pre>

<p>So when I compute the similarity between 'phone' and 'iphone', I get a nonzero value.</p>

<pre class=""lang-py prettyprint-override""><code>sim_match.model.similarity('phone','iphone')
&gt;&gt; 0.33964303
</code></pre>

<p>But at the index 3,9 of matrix (the similarity of 'phone' and 'iphone' in the similarity matrix), I get a zero entry.</p>

<pre class=""lang-py prettyprint-override""><code>matrix[3,9]
&gt;&gt; 0.0
</code></pre>

<p>As a matter of fact, almost all entries are zero.</p>

<pre class=""lang-py prettyprint-override""><code>print(matrix)
&gt;&gt;  (0, 0)        1.0
&gt;&gt;  (1, 1)        1.0
&gt;&gt;  (2, 2)        1.0
&gt;&gt;  (3, 3)        1.0
&gt;&gt;  (4, 4)        1.0
&gt;&gt;  (5, 5)        1.0
&gt;&gt;  (6, 6)        1.0
&gt;&gt;  (7, 7)        1.0
&gt;&gt;  (11, 7)       0.21569395
&gt;&gt;  (8, 8)        1.0
&gt;&gt;  (9, 9)        1.0
&gt;&gt;  (10, 10)      1.0
&gt;&gt;  (11, 11)      1.0
&gt;&gt;  (7, 11)       0.21569395
&gt;&gt;  (12, 12)      1.0
&gt;&gt;  (13, 13)      1.0
</code></pre>

<p>Only the words 'lost' and 'missing' have a nonzero similarity and aren't equivalent.</p>

<p>I do know that the matrix is a numpy sparse matrix. Maybe its the parameters I'm passing, but I am confused as to why most of the elements in the matrix are zero. The parameters I passed, based on the documentation, seem that they shouldn't be causing so many entries to be 0. I do note that the nonzero_limit is 100, but shouldn't there be a hundred nonzero entries?</p>
…
